…
2026-03-13 11:32:03 [INFO]: graph_layers: 2
2026-03-13 11:32:03 [INFO]: linear_hidden: [64]
2026-03-13 11:32:03 [INFO]: lr: 0.001
2026-03-13 11:32:03 [INFO]: weight_decay: 0.0001
2026-03-13 11:32:03 [INFO]: feat_drop: 0
2026-03-13 11:32:03 [INFO]: patience: 10
2026-03-13 11:32:03 [INFO]: ft_num: 5
2026-03-13 11:32:03 [INFO]: aggregator: mean
2026-03-13 11:32:03 [INFO]: MainModel(
  (encoders): ModuleDict(
    (metric): Encoder(
      (graph_encoder): SAGEEncoder(
        (sage_layers): ModuleList(
          (0): SAGEConv(
            (feat_drop): Dropout(p=0, inplace=False)
            (fc_neigh): Linear(in_features=128, out_features=64, bias=False)
            (fc_self): Linear(in_features=128, out_features=64, bias=False)
          )
          (1): SAGEConv(
            (feat_drop): Dropout(p=0, inplace=False)
            (fc_neigh): Linear(in_features=64, out_features=32, bias=False)
            (fc_self): Linear(in_features=64, out_features=32, bias=False)
          )
        )
        (pool): MaxPooling()
      )
    )
    (trace): Encoder(
      (graph_encoder): SAGEEncoder(
        (sage_layers): ModuleList(
          (0): SAGEConv(
            (feat_drop): Dropout(p=0, inplace=False)
            (fc_neigh): Linear(in_features=128, out_features=64, bias=False)
            (fc_self): Linear(in_features=128, out_features=64, bias=False)
          )
          (1): SAGEConv(
            (feat_drop): Dropout(p=0, inplace=False)
            (fc_neigh): Linear(in_features=64, out_features=32, bias=False)
            (fc_self): Linear(in_features=64, out_features=32, bias=False)
          )
        )
        (pool): MaxPooling()
      )
    )
    (log): Encoder(
      (graph_encoder): SAGEEncoder(
        (sage_layers): ModuleList(
          (0): SAGEConv(
            (feat_drop): Dropout(p=0, inplace=False)
            (fc_neigh): Linear(in_features=128, out_features=64, bias=False)
            (fc_self): Linear(in_features=128, out_features=64, bias=False)
          )
          (1): SAGEConv(
            (feat_drop): Dropout(p=0, inplace=False)
            (fc_neigh): Linear(in_features=64, out_features=32, bias=False)
            (fc_self): Linear(in_features=64, out_features=32, bias=False)
          )
        )
        (pool): MaxPooling()
      )
    )
  )
  (locator): Voter(
    (net): FullyConnected(
      (net): Sequential(
        (0): Linear(in_features=96, out_features=64, bias=True)
        (1): ReLU()
        (2): Linear(in_features=64, out_features=1, bias=True)
      )
    )
  )
  (typeClassifier): Classifier(
    (net): FullyConnected(
      (net): Sequential(
        (0): Linear(in_features=96, out_features=64, bias=True)
        (1): ReLU()
        (2): Linear(in_features=64, out_features=5, bias=True)
      )
    )
  )
)
2026-03-13 11:32:03 [INFO]: Start training for 500 epochs.
2026-03-13 11:32:04 [DEBUG]: con_loss: 2.841, RCA_loss: 2.399, TC_loss: 2.221
2026-03-13 11:32:04 [INFO]: Epoch 0 done. Loss: 6.503, Time per epoch: 0.823[s]
2026-03-13 11:32:04 [DEBUG]: con_loss: 2.842, RCA_loss: 2.306, TC_loss: 1.632
2026-03-13 11:32:04 [INFO]: Epoch 1 done. Loss: 6.163, Time per epoch: 0.327[s]
…
