…
2026-03-13 11:33:32 [INFO]: graph_layers: 2
2026-03-13 11:33:32 [INFO]: linear_hidden: [64]
2026-03-13 11:33:32 [INFO]: lr: 0.001
2026-03-13 11:33:32 [INFO]: weight_decay: 0.0001
2026-03-13 11:33:32 [INFO]: feat_drop: 0
2026-03-13 11:33:32 [INFO]: patience: 10
2026-03-13 11:33:32 [INFO]: ft_num: 7
2026-03-13 11:33:32 [INFO]: aggregator: mean
2026-03-13 11:33:32 [INFO]: MainModel(
  (encoders): ModuleDict(
    (metric): Encoder(
      (graph_encoder): SAGEEncoder(
        (sage_layers): ModuleList(
          (0): SAGEConv(
            (feat_drop): Dropout(p=0, inplace=False)
            (fc_neigh): Linear(in_features=128, out_features=64, bias=False)
            (fc_self): Linear(in_features=128, out_features=64, bias=False)
          )
          (1): SAGEConv(
            (feat_drop): Dropout(p=0, inplace=False)
            (fc_neigh): Linear(in_features=64, out_features=32, bias=False)
            (fc_self): Linear(in_features=64, out_features=32, bias=False)
          )
        )
        (pool): MaxPooling()
      )
    )
    (trace): Encoder(
      (graph_encoder): SAGEEncoder(
        (sage_layers): ModuleList(
          (0): SAGEConv(
            (feat_drop): Dropout(p=0, inplace=False)
            (fc_neigh): Linear(in_features=128, out_features=64, bias=False)
            (fc_self): Linear(in_features=128, out_features=64, bias=False)
          )
          (1): SAGEConv(
            (feat_drop): Dropout(p=0, inplace=False)
            (fc_neigh): Linear(in_features=64, out_features=32, bias=False)
            (fc_self): Linear(in_features=64, out_features=32, bias=False)
          )
        )
        (pool): MaxPooling()
      )
    )
    (log): Encoder(
      (graph_encoder): SAGEEncoder(
        (sage_layers): ModuleList(
          (0): SAGEConv(
            (feat_drop): Dropout(p=0, inplace=False)
            (fc_neigh): Linear(in_features=128, out_features=64, bias=False)
            (fc_self): Linear(in_features=128, out_features=64, bias=False)
          )
          (1): SAGEConv(
            (feat_drop): Dropout(p=0, inplace=False)
            (fc_neigh): Linear(in_features=64, out_features=32, bias=False)
            (fc_self): Linear(in_features=64, out_features=32, bias=False)
          )
        )
        (pool): MaxPooling()
      )
    )
  )
  (locator): Voter(
    (net): FullyConnected(
      (net): Sequential(
        (0): Linear(in_features=96, out_features=64, bias=True)
        (1): ReLU()
        (2): Linear(in_features=64, out_features=1, bias=True)
      )
    )
  )
  (typeClassifier): Classifier(
    (net): FullyConnected(
      (net): Sequential(
        (0): Linear(in_features=96, out_features=64, bias=True)
        (1): ReLU()
        (2): Linear(in_features=64, out_features=7, bias=True)
      )
    )
  )
)
2026-03-13 11:33:32 [INFO]: Start training for 500 epochs.
2026-03-13 11:33:32 [DEBUG]: con_loss: 2.732, RCA_loss: 3.225, TC_loss: 2.610
2026-03-13 11:33:33 [DEBUG]: con_loss: 2.707, RCA_loss: 2.850, TC_loss: 2.200
2026-03-13 11:33:33 [INFO]: Epoch 0 done. Loss: 6.854, Time per epoch: 1.010[s]
2026-03-13 11:33:33 [DEBUG]: con_loss: 2.734, RCA_loss: 2.599, TC_loss: 2.048
…
